model.pth (torch, 3200 bytes, 3 tensors)

weight f4 [10, 1]
00000000: a063 9dbe 080b 6abe f80e 6dbf 8492 3d3f
00000010: 60cd 94bd 9065 7fbf 2e00 0e3f 507a 50be
00000020: c0c9 243d f067 d83e
-0.3074007 -0.2285577 -0.92600965 0.7405169 -0.07265735 -0.9976435 0.55469024 -0.20359159
0.040231466 0.42266798

bias f4 [10]
00000000: 48d6 233f 3605 7c3f 644d b63e 7c7c 0cbf
00000010: d82e 2abe dc33 113f b0e8 6dbf 84e3 58bf
00000020: 5c8e dbbe 8827 393f
0.6399884 0.9844545 0.3560592 -0.5487745 -0.16619432 0.56719756 -0.9293318 -0.8472216
-0.4288205 0.72325945

weight f4 [1, 10]
00000000: ab8a 973e 0623 75be 22f0 d43c 2a4d 4a3e
00000010: e231 173d 0ae8 49be 4714 1c3e 4562 9ebd
00000020: 8c0b c53c 6b14 4e3e
0.29597983 -0.23939142 0.02599341 0.19755998 0.036912806 -0.19717422 0.1524211 -0.07733587
0.024053358 0.20124976
